test_data/dem0_0_mlp_params.pth (torch, 54788 bytes, 9 tensors)

net.net.0.0.weight f4 [64, 2]
0	0xbe24f2c8	-0.16108239
1	0xbdff03ad	-0.12451873
2	0xbeb82fb0	-0.35973883
3	0x3e81bee8	0.25340962
4	0x3e085a74	0.13315755
5	0xbedb18c2	-0.42792326
6	0x3df63ff9	0.120239206
7	0xbe995161	-0.299449
8	0x3e35c927	0.17752515
9	0x3c4cd938	0.012502961
10	0xbee546df	-0.44780633
11	0xbe93b5cb	-0.28849635
12	0xbecd63b5	-0.40115133
13	0x3e95de1f	0.29271027
14	0x3ed6a2b3	0.41921005
15	0xbec52a35	-0.38508764
16	0xbe3a2b7c	-0.1818065
17	0x3e8c171a	0.27361375
18	0x3cd58a87	0.026067032
19	0xbe102117	-0.14075123
20	0xbedc5c40	-0.4303913
21	0xbd59ec10	-0.053203642
22	0x3eb13e97	0.34618065
23	0x3e8790db	0.26477703
24	0xbef19443	-0.47183427
25	0x3e8e98f9	0.27851084
26	0xbe84f266	-0.25966185
27	0xbdf85884	-0.12126258
28	0xbd26f29a	-0.040758707
29	0xbda5a799	-0.08088607
30	0x3e82dd3c	0.25559413
31	0xbe096cb7	-0.13420378
32	0x3e09e452	0.13466004
33	0xbe449ea2	-0.19201139
34	0x3eaf9533	0.34293517
35	0xbe20e790	-0.15713334
36	0xbed4615a	-0.41480523
37	0xbeda299e	-0.42609876
38	0x3ead66be	0.3386745
39	0x3cb49dde	0.022047933
40	0x3ee022ef	0.43776652
41	0xbee6b3da	-0.4505909
42	0xbdc1dd5e	-0.094660506
43	0x3cf17405	0.029474268
44	0xbd9ce2aa	-0.0766042
45	0xbe7e2cff	-0.24821852
46	0x3ed497b4	0.4152199
47	0x3eaaabfc	0.3333434
48	0xbee1405b	-0.43994412
49	0xbe6e952a	-0.23299089
50	0x3e39eb6a	0.1815621
51	0xbde1ddc2	-0.11028625
52	0xbeaac74a	-0.3335517
53	0x3d35c102	0.04437352
54	0xbd29a020	-0.041412473
55	0x3e29e7b2	0.16592291
56	0xbe0be4d8	-0.13661516
57	0xbe453f4b	-0.19262426
58	0xbe33ee92	-0.17571476
59	0xba79ff30	-0.0009536622
60	0x3eaf6f84	0.34264767
61	0xbe88f6c3	-0.26750764
62	0x3e7bb885	0.24582107
63	0x3e91f92d	0.2851042
64	0xbeb415cf	-0.3517289
65	0x3dc84f6e	0.09780775
66	0x3ed530f4	0.4163891
67	0xbdd972d5	-0.106176056
68	0xbe722612	-0.23647335
69	0x3eb8bbec	0.36080873
70	0x3ea005bd	0.31254378
71	0x3eacdb06	0.33760852
72	0x3ed2db03	0.41182718
73	0xbecf2818	-0.40460277
74	0x3ec4c24c	0.38429487
75	0xbce6761c	-0.02813249
76	0x3e50e711	0.20400645
77	0x3eb21f77	0.3478963
78	0xbe809c82	-0.25119406
79	0x3e5b6efa	0.21429053
80	0xbe8ac4f7	-0.27103397
81	0xbe51d351	-0.20490767
82	0x3dd98628	0.106212914
83	0xbdbc7a01	-0.09202958
84	0xbe80b7e3	-0.25140294
85	0x3d39d65c	0.045370445
86	0xbef44766	-0.47710723
87	0xbdc43a37	-0.09581416
88	0xbdb5fe7f	-0.08886432
89	0xbec30ec6	-0.3809721
90	0xbd4bd4dc	-0.049763545
91	0xbe9c87d9	-0.30572394
92	0x3dd7a746	0.10529952
93	0x3edb8d0e	0.42881054
94	0x3dc9fe1e	0.09862922
95	0xbe85cc85	-0.261326
96	0xbe475909	-0.19467558
97	0xbe0f0239	-0.13965692
98	0xbe445084	-0.1917134
99	0x3ec623c9	0.38699177
100	0x3e7234c2	0.23652938
101	0xbe05ff17	-0.1308559
102	0xbe9ead1f	-0.30991456
103	0x3e632bca	0.22184673
104	0x3edd8f7b	0.4327353
105	0xbecf56bc	-0.4049586
106	0xbd61ca4d	-0.05512457
107	0xbe2aaa91	-0.16666628
108	0x3e746991	0.23868395
109	0xbe806075	-0.2507359
110	0x3eb68bbc	0.35653484
111	0x3e7836d6	0.24239668
112	0xbc20bf10	-0.009811178
113	0x3eb7968f	0.35857055
114	0x3d3d7133	0.046250533
115	0xbe747dc5	-0.23876102
116	0xbee2d5c0	-0.44303703
117	0xbea94a8a	-0.3306468
118	0xbd6f6168	-0.058442503
119	0x3dbcfb36	0.09227602
120	0x3bc1e118	0.005916726
121	0xbe89091e	-0.26764768
122	0x3ed52397	0.41628715
123	0xbe6ff298	-0.23432386
124	0x3ea3ddaf	0.3200507
125	0xbebdb199	-0.3704956
126	0xbe85a498	-0.26102138
127	0xbced80a6	-0.028992008

net.net.0.0.bias f4 [64]
0	0x3c385f5c	0.011253204
1	0x3cd4c5fb	0.02597331
2	0x3bc8b454	0.0061250124
3	0x3b36caf9	0.0027891977
4	0xbc82e809	-0.015979784
5	0x3cb4c4f8	0.022066578
6	0x3cba6018	0.0227509
7	0x3befd043	0.007318528
8	0x3cb70084	0.022339113
9	0xbc9709b3	-0.018437242
10	0xbad3cf68	-0.0016159834
11	0x3b76dc93	0.0037668094
12	0xbc3ba7e5	-0.011453603
13	0xbbec37e8	-0.007208813
14	0x3bed65a3	0.007244782
15	0x3cc55de2	0.024092618
16	0xbbd6b724	-0.006552594
17	0x3c410e8c	0.011783253
18	0x3c637817	0.013883612
19	0xbb719cec	-0.0036867214
20	0x3b758eb1	0.0037469084
21	0x3bb45d9c	0.005504323
22	0xbbdc7fc6	-0.006729099
23	0x3cdfc3fa	0.027315129
24	0x3b99135a	0.0046714963
25	0x3a89555a	0.0010477707
26	0xbb09c762	-0.0021023382
27	0xbc5546c4	-0.01301736
28	0xbc0496b2	-0.008092569
29	0xbcc67e72	-0.024230216
30	0x3c9835ca	0.018580336
31	0xbc58ace8	-0.013224818
32	0x3ac50c99	0.0015033662
33	0x3c046d30	0.008082673
34	0x3b5c3278	0.0033599418
35	0xbaeecb81	-0.0018218608
36	0xbc9a08ee	-0.018803086
37	0x3b78bbe4	0.0037953788
38	0x3b8f76eb	0.00437819
39	0x3bf73c6b	0.007545044
40	0x3c2fef60	0.010738224
41	0x3caa88cc	0.020817183
42	0x3c269c47	0.010169095
43	0xbb29d8ca	-0.002591657
44	0x3bfb55e8	0.007670153
45	0x3bf88ecc	0.007585382
46	0x391cc450	0.00014950451
47	0x3b960e5e	0.0045793494
48	0x3c84e2e6	0.016221475
49	0x3b1ea03d	0.0024204396
50	0xbcba9948	-0.022778168
51	0x3b0f9770	0.0021910332
52	0x3d2b7eac	0.04186885
53	0x3c26619e	0.01015511
54	0x3cbe3ac2	0.023221377
55	0xbb9bea9d	-0.0047581927
56	0x3afe6a25	0.0019410296
57	0x3d020890	0.031746447
58	0x3c02df37	0.007987789
59	0xbbeb740c	-0.0071854647
60	0xbc1ef576	-0.009702077
61	0x3bf9737e	0.0076126447
62	0xb8bbfda0	-8.964096e-05
63	0x3b23127c	0.0024882844

net.net.1.0.weight f4 [64, 64]
0	0xbb34418e	-0.0027504894
1	0xb9b9e260	-0.00035454612
2	0xba664948	-0.00087847235
3	0x3b60473e	0.003422215
4	0xbbd2b81e	-0.00643064
5	0x38af9f5c	8.374333e-05
6	0xba78ab88	-0.00094860094
7	0x37c9fc00	2.4078414e-05
8	0x37f61800	2.9336661e-05
9	0xbb864326	-0.00409736
10	0xbb95f4da	-0.0045763077
11	0xbb7387ce	-0.0037159803
12	0xbb9af56c	-0.0047289636
13	0xbc047f8c	-0.00808705
14	0xbba111e0	-0.004915461
15	0xbbb8e8d5	-0.00564299
16	0x3ac16124	0.0014753682
17	0xbc28db9d	-0.010306266
18	0x3b50caf6	0.0031859255
19	0x3bf878ba	0.007582751
20	0x3a0d09a8	0.0005380162
21	0x3ba2e7e4	0.004971491
22	0x3b652612	0.0034965319
23	0xbb6348a8	-0.0034680758
24	0x3ac4062c	0.0014955453
25	0xbbdb7c19	-0.006698143
26	0x3b9afdc6	0.004729959
27	0x3b49bb3f	0.0030781773
28	0xba89a667	-0.0010501862
29	0xbb93da4a	-0.004512106
30	0x3b239377	0.0024959722
31	0xbc17a6fc	-0.009256121
32	0x3b180320	0.0023195222
33	0xbaaa3ba0	-0.001298774
34	0xba012dec	-0.00049278024
35	0x3b07bb15	0.0020710875
36	0xba72c618	-0.00092610857
37	0x3b148ab9	0.0022665693
38	0xbba81e13	-0.0051305383
39	0x3b56c534	0.003277135
40	0xbbf45182	-0.0074560056
41	0x3be8909d	0.0070973174
42	0xba2780ca	-0.00063897355
43	0x3b5b2d0e	0.0033443603
44	0x3b287da4	0.0025709653
45	0xbc353216	-0.011059305
46	0xbadeaca0	-0.0016988702
47	0xbb907a32	-0.004409098
48	0x3bb63731	0.0055607785
49	0x3c44e141	0.012016595
50	0xbafa43b8	-0.0019093668
51	0x3b043ad6	0.002017667
52	0x3b0d8343	0.002159313
53	0xbb93d815	-0.004511843
54	0xbb9a63ec	-0.0047116186
55	0x3bed1c79	0.00723606
56	0x3c3a4ff6	0.011371603
57	0x3b4be0b4	0.0031109275
58	0x3b323e28	0.0027197693
59	0x3b6a9609	0.0035794994
60	0x3b765644	0.003758804
61	0x3b3224b9	0.0027182533
62	0x3bb2f8cc	0.005461788
63	0x3bbcb53c	0.0057589095
64	0x3a858f7c	0.0010189856
65	0x3b39340c	0.0028259782
66	0x3ac40948	0.0014956379
67	0xba38efd8	-0.00070547825
68	0x3b918b67	0.004441667
69	0x3b63a46e	0.003473546
70	0xbc1bf5cd	-0.009519053
71	0xb9831dc0	-0.00025008433
72	0x3b41e6f8	0.002958713
73	0xba8bb090	-0.0010657478
74	0x3ae94ed8	0.0017799987
75	0x3be1e060	0.0068932027
76	0x3b9a1922	0.004702703
77	0x3c5d330f	0.013500943
78	0xbba0fa31	-0.0049126376
79	0x3b1e42b0	0.0024148636
80	0xbb8e21b2	-0.004337513
81	0xbbe161ca	-0.0068781124
82	0x3b007f67	0.0019607188
83	0x3ba3f7b2	0.005003893
84	0x3afb5e68	0.0019177916
85	0x3c0dafc0	0.008647859
86	0x3bb7cf44	0.005609425
87	0xba13e1c4	-0.00056412467
88	0xbb1ef718	-0.0024256166
89	0xbbfddf6a	-0.0077475803
90	0xbb8a47fb	-0.0042200065
91	0xbba8bc2d	-0.0051493854
92	0x3bf95bb6	0.0076098097
93	0x3a9a4766	0.0011770546
94	0xbb9af0a2	-0.0047283927
95	0x3b6369e0	0.0034700558
96	0x3b71905e	0.0036859731
97	0x3a8683ae	0.0010262632
98	0x3c0cfe26	0.008605516
99	0x39e65178	0.00043929718
100	0xbae54d42	-0.0017494338
101	0xbb01cfff	-0.0019807813
102	0x39172dc0	0.00014417525
103	0x3ba95e6f	0.005168728
104	0xbc3127ac	-0.010812681
105	0x3b23b8de	0.0024982016
106	0x3b7ca3c9	0.0038549772
107	0xb8a41d80	-7.825624e-05
108	0x3bcedaae	0.0063126897
109	0x39b02530	0.00033597043
110	0xba662394	-0.0008779105
111	0xb8b9a200	-8.851662e-05
112	0xbb46ae22	-0.0030316194
113	0xbb3991ae	-0.0028315592
114	0xbbb0d691	-0.005396672
115	0x3b48eac9	0.003065752
116	0xbb58b598	-0.0033067223
117	0x3c592496	0.013253352
118	0x39a3b8e0	0.00031227525
119	0x3ac70f5c	0.0015187073
120	0x3b3f5708	0.0029196162
121	0xbb8856f0	-0.0041607544
122	0xbb018983	-0.0019765801
123	0xb9b610c0	-0.00034726225
124	0x3b5ad4d8	0.0033391025
125	0x3b160400	0.0022890568
126	0xbb5cb703	-0.003367842
127	0x3c607cd8	0.01370164
128	0xbb83ce52	-0.004022398
129	0xbb03ab1c	-0.0020091003
130	0xb9261d18	-0.00015841832
131	0x3b48f39f	0.0030662788
132	0xbb993748	-0.0046757795
133	0xbac5c0d4	-0.0015087374
134	0x3a054115	0.00050832453
135	0x3aad3738	0.0013215309
136	0xbbf3151f	-0.0074182893
137	0x3b76bba1	0.0037648457
138	0x3c29f5c2	0.010373535
139	0xbb191e88	-0.0023364145
140	0x3a9ce8a0	0.0011971183
141	0x3ba9dc76	0.0051837517
142	0x3c2f077c	0.010682937
143	0xbb8a0b17	-0.004212748
144	0xba971fc2	-0.001152985
145	0x3bbeb1f3	0.005819553
146	0x3ad9e0fe	0.0016622839
147	0x3c08d186	0.0083507355
148	0x38fe0960	0.0001211341
149	0xbbc8841c	-0.0061192643
150	0x3bb68bd6	0.005570869
151	0x3b3f5c5a	0.0029199333
152	0xbb250010	-0.002517704
153	0xb98292f0	-0.0002490501
154	0x3c57b14f	0.013164832
155	0x3af681b4	0.0018806965
156	0xbb0d1c8a	-0.0021531903
157	0x38922260	6.968225e-05
158	0x3b6628d6	0.0035119555
159	0x3ae2dafa	0.0017307692
160	0xbb0bc230	-0.0021325462
161	0x39aa9008	0.00032532238
162	0xbbbd67fa	-0.0057802172
163	0xbb5ea842	-0.0033974801
164	0xb9a52f64	-0.0003150656
165	0xbb8cfe4c	-0.0043027755
166	0x3abd171c	0.0014426443
167	0x3b6892d0	0.0035487898
168	0xbb9e83a7	-0.0048374715
169	0x3a65e8b5	0.0008770333
170	0xbc73480f	-0.014848723
171	0xbb2cae0a	-0.0026348853
172	0xbaf5daee	-0.0018757263
173	0xbc705401	-0.014668466
174	0xbb9df8ec	-0.0048209336
175	0x3b7ebe0f	0.0038870608
176	0x3c1881c3	0.009308281
177	0x39de9d60	0.00042460393
178	0xba7e76e8	-0.00097070495
179	0xbbadc2cc	-0.0053027626
180	0x3ab36610	0.0013687033
181	0xbc8e8244	-0.0173961
182	0xbad0875a	-0.0015909479
183	0x39a612c0	0.00031675957
184	0xbb1d1470	-0.002396848
185	0x3c25083f	0.010072767
186	0x3b8294b6	0.003985013
187	0x3c76eda2	0.0150713045
188	0xbc1aeb4f	-0.009455516
189	0xbbadf4a4	-0.0053087045
190	0xbbb28739	-0.0054482487
191	0x3c702063	0.014656159
192	0xbac49e9f	-0.0015000886
193	0xba0309f0	-0.0004998734
194	0xba56e95c	-0.00081982254
195	0x3b76717c	0.0037604263
196	0xba472486	-0.000759669
197	0x3b679dba	0.0035341815
198	0x3a784b24	0.0009471646
199	0x3b269a4c	0.0025421558
200	0xbba28886	-0.0049601225
201	0x3c1a6d09	0.00942541
202	0xbacb8f07	-0.0015530296
203	0x38f6d800	0.00011770427
204	0x3a195e80	0.00058505684
205	0xbb28158d	-0.002564761
206	0xbcec7bda	-0.02886765
207	0x3bcbb1f2	0.006216281
208	0xbb9f6652	-0.0048644925
209	0x3c5b5d2c	0.013388913
210	0x3b315848	0.0027060676
211	0xbb729982	-0.0037017767
212	0x39e4cea0	0.00043641496
213	0x3b7b051f	0.0038302613
214	0x3b2af502	0.0026085977
215	0xbb4ef3ac	-0.0031578345
216	0xbb470098	-0.0030365344
217	0xbb95b7aa	-0.0045690136
218	0x3bb88cc6	0.005632016
219	0xbc27f872	-0.010252105
220	0x3b75b740	0.0037493259
221	0x3be56fc4	0.007001849
222	0x3b8c7039	0.004285839
223	0xbad9e8bc	-0.0016625146
224	0x3baf6f0f	0.0053538154
225	0x3a36bf98	0.0006971299
226	0x3bf3917c	0.0074331146
227	0xb6f6c500	-7.354305e-06
228	0xbb985004	-0.0046482105
229	0x3bc1c9c4	0.005913945
230	0xbb8470b8	-0.0040417574
231	0x3b7bc5f7	0.0038417557
232	0x3c086a72	0.00832616
233	0x3bcdeff0	0.0062847063
234	0x3bf198f4	0.0073729698
235	0x3a0cf728	0.00053774053
236	0xbb63cf84	-0.003476114
237	0x3c00d65f	0.00786361
238	0xbbbc3828	-0.005743999
239	0x3c34d161	0.011036248
240	0xbc6ff6ee	-0.014646275
241	0xbb3b7176	-0.0028601564
242	0xbc429c01	-0.011878015
243	0x3ba93467	0.0051637175
244	0xba0e2cc4	-0.0005423541
245	0x3cb35f0e	0.021895912
246	0x39c51768	0.00037592207
247	0xbbc6c3da	-0.006065828
248	0xbbb6e0de	-0.0055810055
249	0xbb581782	-0.0032972996
250	0xbba00746	-0.0048836796
251	0xbc7f4c7e	-0.015582202
252	0xbb1dedf9	-0.0024098142
253	0xbb713421	-0.0036804753
254	0xba82fef0	-0.000999419
255	0xbc30826a	-0.010773281

net.net.1.0.bias f4 [64]
0	0x3a50baa0	0.00079623796
1	0x3abbfeb9	0.0014342881
2	0x393a3128	0.00017756654
3	0x3bbfd13c	0.0058538
4	0xb99e2ff8	-0.00030171848
5	0x3c54405e	0.012954799
6	0x3c46eaa6	0.0121409055
7	0x3bcd51ca	0.0062658535
8	0x37a88d30	2.0092906e-05
9	0x3bd9c523	0.006645815
10	0xbbe234ee	-0.0069032824
11	0x3c8cb786	0.017177355
12	0x3b384013	0.0028114363
13	0xbc23ce98	-0.009997986
14	0xbbd2875c	-0.0064248275
15	0xbaf9b070	-0.0019049775
16	0xbc253fa6	-0.010085976
17	0xbca94158	-0.020661041
18	0x3c4bbe68	0.012435533
19	0xbbef6f88	-0.0073069967
20	0xbbc68ccd	-0.006059265
21	0x3a4aa9d7	0.00077309966
22	0x3b4c6ce5	0.0031192836
23	0x3b108214	0.002205019
24	0x3b187628	0.0023263786
25	0x3b26db90	0.002546046
26	0xbc6504b0	-0.013978168
27	0xbcaa8c6a	-0.020818908
28	0x3b26066a	0.0025333413
29	0xbbf84f19	-0.0075777886
30	0xbbf204b8	-0.0073858164
31	0x3b336122	0.0027371128
32	0x3bbe6744	0.00581065
33	0x3c2cd852	0.010549622
34	0xb98e5648	-0.00027148635
35	0x3ba3a001	0.004993439
36	0x3c976e64	0.018485256
37	0x3c2542d1	0.010086731
38	0xbc3048e4	-0.010759566
39	0xb72f6d00	-1.0456191e-05
40	0x3b257a91	0.0025250057
41	0xbbc8f26e	-0.0061324155
42	0x3bb0dec0	0.0053976476
43	0xbb5e3fde	-0.003391258
44	0x3cbb6c14	0.022878684
45	0x3a545de2	0.0008101148
46	0xbb4ddbd7	-0.0031411552
47	0x3c7583de	0.014985053
48	0x3b8c9b49	0.0042909724
49	0x3b39096b	0.0028234373
50	0xbad66408	-0.0016356716
51	0x3ba7b027	0.0051174345
52	0x3bfb3078	0.00766569
53	0x3b549b7e	0.0032441313
54	0xbbc2d846	-0.005946192
55	0xbbdd8f4d	-0.0067614675
56	0x3b54b7a7	0.0032458098
57	0xb93f3d74	-0.00018238073
58	0xbc1f437d	-0.00972068
59	0x3bb8e04a	0.0056419717
60	0x3c4467c6	0.011987632
61	0xbb3788d3	-0.0028005138
62	0xbb981141	-0.0046407287
63	0xbb3d2395	-0.002886032

net.net.2.0.weight f4 [64, 64]
0	0x3bbd9944	0.005786093
1	0xbb8f3c33	-0.00437119
2	0x3b08ccbd	0.0020873987
3	0xbc0516d2	-0.008123117
4	0xbb847d55	-0.004043261
5	0x3a298928	0.0006467276
6	0xbb2ee979	-0.0026689454
7	0x3a9c0180	0.0011902303
8	0xb99d5890	-0.00030011358
9	0xba31d7c8	-0.0006784168
10	0xbb9e0783	-0.004822673
11	0xbb5bac6a	-0.0033519515
12	0xbc0d8d8c	-0.008639704
13	0x3c0c9d11	0.008582369
14	0xbbb12a98	-0.005406689
15	0x39913400	0.00027695298
16	0x3ba776cb	0.005110597
17	0xbb7b3521	-0.0038331228
18	0xbb9d63dc	-0.004803164
19	0xbb59d306	-0.0033237352
20	0xbc3a245f	-0.011361211
21	0xbbaa1da5	-0.005191522
22	0xbae9aaf4	-0.0017827437
23	0xbb5b3650	-0.003344912
24	0xbc33cc7a	-0.010974044
25	0xbb992bec	-0.0046744253
26	0xbb02e6ec	-0.0019974066
27	0x3b32fbbb	0.0027310688
28	0xbb648956	-0.0034871898
29	0xbb883e25	-0.004157799
30	0x3b151720	0.002274938
31	0xbbda2aa1	-0.006657914
32	0xbb3fe0e6	-0.0029278337
33	0x3a601cee	0.0008549233
34	0x3c6f620f	0.014610781
35	0xbc017708	-0.007901914
36	0x3adef88b	0.0017011327
37	0x3c078314	0.008270998
38	0xbbf3bd7e	-0.0074383607
39	0x3bbb75f4	0.005720848
40	0xbba602b3	-0.0050662397
41	0x3a899080	0.0010495335
42	0xbb0fdfd5	-0.0021953483
43	0x3b8afb3f	0.0042413766
44	0x3b5938cc	0.0033145426
45	0xbaace61e	-0.0013191139
46	0xbb6573a7	-0.003501156
47	0x3ba29436	0.004961516
48	0xb89c7400	-7.460266e-05
49	0x3b4d6a48	0.0031343866
50	0xbab07268	-0.001346183
51	0x3c3da65b	0.011575307
52	0xbba0b1d4	-0.0049040113
53	0x3a23dc60	0.0006250795
54	0xbb3b5824	-0.0028586471
55	0xbc17b053	-0.009258348
56	0x3b945d13	0.004527697
57	0xbc5fe9be	-0.013666568
58	0x3bc37a57	0.005965512
59	0xbc49783a	-0.012296731
60	0x3bb67abe	0.005568831
61	0x3afc8db6	0.0019268307
62	0x3b94f0b4	0.0045452956
63	0x3c096bb7	0.008387498
64	0xb7bfb480	-2.2853026e-05
65	0x39b96b40	0.00035365857
66	0x3af979e4	0.0019033519
67	0xb995aa40	-0.0002854634
68	0x3af069d0	0.0018342081
69	0x3b1d6c69	0.0024020916
70	0xbb331871	-0.00273278
71	0x3bcf46c8	0.0063255765
72	0x3a7dd650	0.0009683119
73	0xbbb66c8e	-0.00556714
74	0x3ab7c50d	0.0014020518
75	0xbb90a7cf	-0.0044145356
76	0x39b0809c	0.00033665157
77	0x3be0a241	0.0068552797
78	0xbb050db6	-0.0020302362
79	0x3be6cf1e	0.0070437333
80	0x3b933bc9	0.004493211
81	0x3c008057	0.007843099
82	0xbc1a01c2	-0.009399833
83	0x39391540	0.00017650891
84	0x3b7cdbce	0.0038583162
85	0xbc0299aa	-0.007971207
86	0x3bb843ff	0.00562334
87	0x3bd3258c	0.006443685
88	0xbc37ba3f	-0.011213838
89	0xbb4c9866	-0.0031218766
90	0x3b2333fc	0.0024902811
91	0x3c2b1c13	0.010443705
92	0x3bea489b	0.0071497685
93	0x3b1e810e	0.002418581
94	0xbb2d948d	-0.0026486248
95	0xb910ff30	-0.00013827975
96	0x3be5e951	0.007016339
97	0x3c188bc0	0.009310663
98	0xbbca1bf5	-0.0061678835
99	0x3b040550	0.0020144768
100	0x3bb61127	0.005556244
101	0xbb8f02f7	-0.004364367
102	0xbaa637e2	-0.0012681449
103	0xba7ae090	-0.00095702056
104	0xbae1bf5e	-0.001722317
105	0x3b0e6610	0.0021728314
106	0xbba59f9f	-0.0050544287
107	0x3a94acb2	0.0011342971
108	0x3a4167f2	0.0007377855
109	0xba9c82a4	-0.0011940789
110	0x3bd75a16	0.0065720184
111	0xbb81f77c	-0.00396627
112	0xbc2c96fb	-0.010534043
113	0xbb093062	-0.002093338
114	0xbbf25316	-0.0073951585
115	0xbbb46a90	-0.0055058673
116	0x3b2930f0	0.0025816523
117	0x3b77ea7c	0.0037828973
118	0x3c764a98	0.015032433
119	0x3c0ae2da	0.008476937
120	0x3b9ac33d	0.0047229812
121	0xbaf69224	-0.0018811864
122	0x3a577dc0	0.00082203373
123	0x3bf3a406	0.0074353246
124	0x3a505fe0	0.0007948857
125	0xbbaf307c	-0.005346356
126	0xbb3f4340	-0.0029184371
127	0xbabc77c0	-0.001437895
128	0x3c0e4531	0.008683489
129	0x3b98328a	0.0046446966
130	0x3b982071	0.004642539
131	0x3bc2331b	0.0059265024
132	0xba3767bc	-0.00069963536
133	0x3bb1f586	0.00543088
134	0xbbff7d78	-0.0077969395
135	0x3bea8c5a	0.0071578445
136	0xbc8f8d26	-0.01752336
137	0xbb8c5ac1	-0.0042832796
138	0x3adfd128	0.0017075883
139	0x3a1391a0	0.0005629305
140	0x3bd01e40	0.0063512623
141	0xbaa52abc	-0.0012601237
142	0xbb727032	-0.0036993143
143	0x3b0bb83c	0.002131953
144	0xbb9f0ca7	-0.004853803
145	0xbb9d4efd	-0.004800676
146	0xbc31456a	-0.010819772
147	0x3b22e3ce	0.002485502
148	0xbb62bce2	-0.0034597446
149	0xbc158cbf	-0.009127795
150	0x3c2f9289	0.010716089
151	0x3b1b8aec	0.0023733927
152	0xba587769	-0.00082575396
153	0xbb6c5cdd	-0.0036066093
154	0x3c2d409d	0.010574487
155	0x3b960df1	0.0045792987
156	0x3be6625f	0.0070307697
157	0xbc252ecd	-0.010081959
158	0xbb959942	-0.004565389
159	0x3c3f3e53	0.011672574
160	0xbaad45ec	-0.0013219691
161	0xbaf37a2c	-0.0018575839
162	0xbbf6f237	-0.0075361985
163	0x39560670	0.00020411029
164	0xb7b8d800	-2.2035092e-05
165	0x3b87cfb9	0.0041446355
166	0xb990df60	-0.00027632248
167	0x3c5ff38c	0.013668906
168	0x3aae3234	0.0013290108
169	0xbc24bbf4	-0.010054577
170	0x3c0db4d5	0.008649071
171	0x3900ec80	0.00012295134
172	0x3afe352e	0.0019394511
173	0xbc5ea816	-0.0135898795
174	0x3c0de040	0.008659422
175	0x37d50480	2.5393674e-05
176	0xbbf80a03	-0.007569553
177	0xb8ced900	-9.863265e-05
178	0x3afe1848	0.0019385898
179	0xba88d81c	-0.0010440382
180	0x3b7c9cfa	0.0038545714
181	0x3be400f6	0.0069581224
182	0x3c770ca8	0.015078701
183	0xb95e18e0	-0.00021180836
184	0xbb93465b	-0.004494471
185	0x3bcf2339	0.0063213375
186	0xba925727	-0.001116489
187	0xbbf5353c	-0.0074831527
188	0x3bac68db	0.005261523
189	0x3bd07b2b	0.006362339
190	0x3b3ee480	0.0029127896
191	0x3c49cafa	0.01231646
192	0x3b6a78ea	0.0035777637
193	0xbb0a8fe4	-0.0021142894
194	0x3b8ce81f	0.004300132
195	0x3b89d5f9	0.0042064157
196	0x3a5f0778	0.0008507888
197	0x3afc6afc	0.0019257958
198	0xbba44520	-0.005013123
199	0x3b9646b0	0.0045860633
200	0xbc4b81e8	-0.012421109
201	0x3abf6f54	0.0014605322
202	0x39910250	0.00027658278
203	0x3acda5a4	0.0015689624
204	0x3ac283a8	0.0014840262
205	0x3c425c47	0.011862821
206	0xbaf5e844	-0.0018761237
207	0x3b5fdb0a	0.0034157657
208	0x3bc86d80	0.006116569
209	0x3b1338f8	0.0022464376
210	0xbc96ade1	-0.018393459
211	0xbaa724a0	-0.0012752004
212	0xbb022ed7	-0.0019864345
213	0xbc096051	-0.00838478
214	0x3b31e366	0.0027143597
215	0x3bfb1b64	0.0076631773
216	0xbc28b479	-0.010296934
217	0xb96b68f8	-0.0002245045
218	0xba0bf390	-0.0005338723
219	0x3b73e593	0.0037215694
220	0x3ac5f35c	0.0015102434
221	0x3b9ab44b	0.0047211996
222	0xbc4d49aa	-0.01252977
223	0xbbbff458	-0.0058579855
224	0x3b98426e	0.004646591
225	0x3b84af1f	0.0040491964
226	0x3bbb49e9	0.005715598
227	0x3aaa6c74	0.0013002292
228	0x3be394f0	0.006945245
229	0xbbac5108	-0.005258683
230	0xbb67e7df	-0.0035386009
231	0xbb27a4d6	-0.0025580428
232	0xbab988a8	-0.0014155107
233	0x3c0da274	0.008644689
234	0xbba10ea6	-0.0049150763
235	0x3b79a7c6	0.0038094386
236	0x3b823c62	0.0039744833
237	0x3952b280	0.00020093657
238	0x3ad379c8	0.0016134316
239	0x389cd5e0	7.478497e-05
240	0xbba0b05f	-0.0049038376
241	0xbba061be	-0.0048944643
242	0xbb021890	-0.0019851066
243	0x3b26e538	0.0025466215
244	0xba1dfea0	-0.0006027017
245	0x3c02d24a	0.007984707
246	0x3b8fe42c	0.004391214
247	0x3b24297a	0.0025049136
248	0x39a27080	0.00030982867
249	0xbbbd4504	-0.0057760496
250	0xbb898abe	-0.0041974476
251	0x3c0df408	0.008664139
252	0xb9220fd0	-0.00015455415
253	0x39a2ec90	0.000310753
254	0xbae4c99c	-0.0017455104
255	0x3a753850	0.00093543995

net.net.2.0.bias f4 [64]
0	0x3ca3a5c1	0.019976499
1	0xbc9f162c	-0.019419752
2	0xbc9663e4	-0.018358178
3	0x3a5a6d7e	0.00083323556
4	0x3b9fd55e	0.0048777303
5	0x3cc3c366	0.023896884
6	0xbc830847	-0.015995158
7	0xbbcb3a43	-0.0062020137
8	0xbb9e26a8	-0.0048263855
9	0xb91d12b0	-0.00014979648
10	0x3cc6f58c	0.024287008
11	0xba92213a	-0.0011148818
12	0xbb809ad4	-0.003924707
13	0xbc35d4a3	-0.01109806
14	0x3c2e9f14	0.010658044
15	0xbcb05c6f	-0.02152845
16	0x3cec5146	0.028847348
17	0xbae3801b	-0.0017356904
18	0xbc075f21	-0.008262427
19	0xbd36b3da	-0.044605114
20	0x3b99fa67	0.0046990397
21	0x3c197864	0.009367082
22	0xbbfd8531	-0.007736825
23	0xbc99ad5a	-0.018759418
24	0xbc83aa46	-0.016072404
25	0xbc2e5dfc	-0.010642525
26	0xbb3afe7e	-0.0028533037
27	0xbc4d2b26	-0.012522494
28	0xbcc3f5b0	-0.023920864
29	0x3a489308	0.0007651304
30	0x3d4bd426	0.049762867
31	0x3cddc904	0.02707339
32	0xbc8104bd	-0.01574933
33	0x3ce5500c	0.02799227
34	0x3b1461ce	0.0022641304
35	0x3cf54eb1	0.02994475
36	0x3b8dc308	0.004326228
37	0x3c2e023a	0.010620648
38	0x3c91cc09	0.017797487
39	0x3c4f261e	0.012643365
40	0xbced0183	-0.028931385
41	0xbd013ee0	-0.031554103
42	0x3b807060	0.003919646
43	0xbd49a5e6	-0.04923048
44	0x3c13a4e2	0.009011479
45	0xbb8b1a4c	-0.004245078
46	0x3bb38797	0.00547881
47	0x3c9e17d1	0.019298466
48	0xbbe9d918	-0.0071364753
49	0xbd36d654	-0.044637993
50	0x3d104c4a	0.035229005
51	0xbc67177b	-0.014104719
52	0x3b1383d3	0.0022508993
53	0xbcd49231	-0.025948616
54	0x3afd5de7	0.0019330353
55	0xbd1dd2f6	-0.038531266
56	0x3c4b1112	0.012394207
57	0xbc7f4785	-0.015581016
58	0x3c894986	0.016758692
59	0x3cf72a52	0.030171547
60	0x3c940ac2	0.018071536
61	0xbb4f251f	-0.003160782
62	0x3d0a6aae	0.033793144
63	0x39511528	0.00019939675

net.net.3.0.weight f4 [64, 64]
0	0x3be89b59	0.007098597
1	0x3c290670	0.010316476
2	0x3b4633d2	0.003024329
3	0x3bd6d158	0.0065557174
4	0x3b9cc691	0.004784413
5	0x3b9c0ba5	0.0047621303
6	0x3a0b3afc	0.00053112186
7	0x3b228255	0.0024796922
8	0x3a826e98	0.0009951172
9	0x3be42c6c	0.0069633033
10	0xbbd1f6e7	-0.006407607
11	0x3b05937a	0.0020382092
12	0x3b6211e6	0.0034495532
13	0xbc05df4c	-0.008170914
14	0xba6d4636	-0.0009051295
15	0xba378754	-0.00070010615
16	0x3b826a7a	0.003979978
17	0x3b33c560	0.0027430877
18	0xbb0cdb22	-0.0021492918
19	0xba7b9db8	-0.0009598392
20	0xbc54a8a1	-0.012979657
21	0xbb7377d4	-0.003715028
22	0x38d0da80	9.958912e-05
23	0x3b879e68	0.0041387565
24	0x3c7a9cc2	0.015296163
25	0xbb8d1575	-0.0043055364
26	0x3c6ef9fb	0.014585967
27	0x3bb4ac8c	0.0055137333
28	0x3b24b5cf	0.002513278
29	0x3ae57dbe	0.0017508788
30	0xbc3a8768	-0.011384822
31	0x3b1606a8	0.002289215
32	0xb964cab0	-0.00021819281
33	0xba882faf	-0.0010390187
34	0x3b814fa4	0.0039462615
35	0x3aaa39be	0.0012987179
36	0x3bbe4692	0.0058067525
37	0x3c200025	0.009765659
38	0xbab448bc	-0.0013754587
39	0x3a224b4a	0.00061910285
40	0x3c145285	0.009052877
41	0x3b9f031f	0.004852667
42	0xba5eabb0	-0.00084942114
43	0xbb5eeba4	-0.0034014964
44	0x3b141e38	0.002260102
45	0xbbda781b	-0.0066671497
46	0xba8984b0	-0.0010491814
47	0x3a3b9f6d	0.000715724
48	0x3b98675c	0.0046509933
49	0xbc26462c	-0.010148566
50	0x3ba0e4ec	0.004910102
51	0x3b8b15cc	0.0042445417
52	0x3bb178b5	0.0054160007
53	0xbb38e352	-0.0028211665
54	0x3c256279	0.0100942785
55	0xba9fe20d	-0.0012198106
56	0x3ae995bc	0.0017821114
57	0x3c0fae1a	0.008769536
58	0xba29a2b8	-0.00064710854
59	0x3a203831	0.0006111889
60	0xba5e4272	-0.0008478529
61	0xbc0fb869	-0.008771994
62	0xbc07defc	-0.00829291
63	0x3bab87a6	0.0052346764
64	0xba53ab90	-0.0008074576
65	0x3bd74e1e	0.0065705916
66	0x3c1f7ac0	0.009733856
67	0x3b91eade	0.004453047
68	0x3b23f135	0.0025015597
69	0xbc4a57a4	-0.012349997
70	0x3b31e6c3	0.0027145601
71	0x3b0bf1e9	0.0021353906
72	0x3a94424b	0.0011311261
73	0xb9f54660	-0.00046782475
74	0xbb0b1c38	-0.0021226536
75	0xbbedb1b3	-0.0072538494
76	0xba321f20	-0.0006794799
77	0xbb9ccdde	-0.0047852835
78	0x3b96cdb7	0.00460216
79	0x3b3c173c	0.0028700372
80	0xbba3646b	-0.004986336
81	0x3b1d2fe6	0.0023984849
82	0xb9817c90	-0.00024697604
83	0xbc0403f3	-0.008057582
84	0xba55ef50	-0.00081609655
85	0xbb9377b2	-0.004500353
86	0xbbce3bcb	-0.006293749
87	0xbafa2344	-0.0019083996
88	0x3b1480e4	0.0022659833
89	0x3a05a028	0.00050974125
90	0xb96447d0	-0.00021770527
91	0x3b84786a	0.004042675
92	0x3b02b056	0.001994153
93	0x3b6aead0	0.0035845526
94	0xbb91bdda	-0.004447681
95	0x3abcd66a	0.0014407162
96	0xba6965f0	-0.00089034345
97	0xb936e420	-0.00017441856
98	0x3b99e174	0.0046960656
99	0xbb5a6d4e	-0.003332931
100	0xbadef20b	-0.001700939
101	0xbbc37d50	-0.005965866
102	0xbbd80398	-0.0065922253
103	0x3be3d5b6	0.0069529666
104	0xba0dea90	-0.00054136757
105	0xbb9124ae	-0.0044294214
106	0x3b4ef5a3	0.0031579516
107	0x3b192623	0.0023368679
108	0xb9f612e0	-0.0004693484
109	0x3a59ab54	0.0008303423
110	0xb9ef16d8	-0.00045602652
111	0x3aec4084	0.0018024598
112	0x3aa395ef	0.0012480597
113	0x3b6897ec	0.0035490943
114	0xb92eeb7c	-0.00016681658
115	0x3c10229d	0.008797315
116	0xba6bdcb9	-0.0008997429
117	0x3a7419c1	0.0009311699
118	0x3c194945	0.009355848
119	0x3b4301eb	0.0029755782
120	0x39d4efac	0.0004061436
121	0xbb5aa115	-0.0033360173
122	0x3ae11be4	0.001717445
123	0xbb1d658f	-0.0024016832
124	0xbc036cb3	-0.008021521
125	0x3bee73af	0.007276974
126	0x3bee6204	0.007274868
127	0x3a0ef728	0.0005453699
128	0x3ac31f9c	0.001488674
129	0x3bf3d01a	0.007440579
130	0xb842b080	-4.6417583e-05
131	0x3c1695cd	0.009190989
132	0x3b0f2748	0.0021843482
133	0xbb83f8a1	-0.0040274416
134	0x3bb6708a	0.005567615
135	0x3ac66052	0.0015134907
136	0xbb286f4e	-0.0025701108
137	0xbbd0775c	-0.006361885
138	0xba8ffb7c	-0.0010984982
139	0xbb0c7803	-0.0021433837
140	0x3b84ea24	0.004056232
141	0xbb110da0	-0.0022133365
142	0x3b0aeb5a	0.002119741
143	0x3aca052c	0.0015412918
144	0xbb77fa7a	-0.0037838505
145	0x3b8f0ac4	0.004365297
146	0xbb9d5fb6	-0.0048026694
147	0xba4b5997	-0.00077571854
148	0x3a5a2668	0.0008321763
149	0x3a28d9b8	0.0006441134
150	0xba6910e8	-0.0008890764
151	0xbb3c4c28	-0.0028731916
152	0x3bc80f44	0.0061053354
153	0xb95fe570	-0.0002135241
154	0xb993b54c	-0.00028173102
155	0xbacadb1e	-0.0015476679
156	0xbb764452	-0.0037577343
157	0xbb543f58	-0.0032386389
158	0xbb24dada	-0.002515486
159	0xba197ad0	-0.00058547873
160	0x3af15f2c	0.0018415204
161	0x3aea37fc	0.0017869468
162	0x3b59e900	0.003325045
163	0x3c2baf34	0.010478783
164	0xba9b84f0	-0.001186518
165	0xbb7283d6	-0.003700485
166	0xbbd3b9ac	-0.006461343
167	0xbb948859	-0.0045328555
168	0xbb1a9614	-0.0023587989
169	0x3aabbe48	0.0013102973
170	0x3c2ecac8	0.010668464
171	0x3bccb659	0.0062473235
172	0xbaec7684	-0.0018040692
173	0xbb621a46	-0.0034500523
174	0xbb9ce83a	-0.0047884258
175	0x3ba9d90c	0.0051833447
176	0xbb894c9b	-0.0041900403
177	0x3aece37e	0.0018073169
178	0x3bfb6571	0.007672005
179	0x3bf5a0cc	0.007495975
180	0xbb4e33c2	-0.0031463956
181	0x3b7d78c6	0.0038676723
182	0xbc00eb88	-0.007868655
183	0x3a4efb18	0.0007895692
184	0x3b492c1e	0.0030696462
185	0xbb59efc6	-0.0033254488
186	0x3bb3cffe	0.005487441
187	0x386ac4c0	5.5973185e-05
188	0x3a46a3a8	0.0007577487
189	0x3bba5f8a	0.0056876587
190	0x3ac066be	0.0014679057
191	0xba9ba6c4	-0.0011875262
192	0xbb71786a	-0.0036845454
193	0x3b22d55e	0.0024846415
194	0x3bb52935	0.005528594
195	0x3c0e497c	0.008684512
196	0xbb288e14	-0.002571945
197	0xbb46978a	-0.0030302727
198	0x3baec253	0.005333224
199	0x3b0e20b2	0.0021686968
200	0xbbbbbf68	-0.0057296045
201	0x38ca5740	9.648362e-05
202	0x3a964278	0.0011463901
203	0x3bae6732	0.0053223604
204	0x3b02c068	0.001995111
205	0x3b42298a	0.002962681
206	0xbb9f4396	-0.004860352
207	0x3c21b54b	0.009869884
208	0xbbb1063c	-0.0054023545
209	0xba2ed4f0	-0.00066693034
210	0x3b49433a	0.0030710236
211	0xbad84c10	-0.001650216
212	0x3ad02b5e	0.0015882065
213	0xbbccde66	-0.006252098
214	0xbbebab2a	-0.007192035
215	0xbb5dc3dd	-0.0033838667
216	0xbb831b0d	-0.0040010274
217	0x3b192068	0.0023365263
218	0x3b16c66b	0.002300645
219	0xb9d580d0	-0.000407225
220	0xbabce4b6	-0.0014411423
221	0x3bd1b082	0.006399215
222	0xbb91d2fc	-0.0044502
223	0xbb232338	-0.0024892818
224	0x3ab3e400	0.0013724566
225	0xbb0f3899	-0.0021853803
226	0x3b9334be	0.0044923713
227	0x3b6c439a	0.0036051036
228	0xb9790800	-0.0002374947
229	0xbb87e7b5	-0.0041474947
230	0x3af0bad0	0.0018366221
231	0x3bd1ccd6	0.006402592
232	0xba451d40	-0.0007519312
233	0xbb9654f4	-0.004587764
234	0x3b81fdf7	0.0039670425
235	0x3b8599e8	0.004077185
236	0x3b04bae0	0.0020252988
237	0x3b04130d	0.0020152957
238	0xb9a793d8	-0.00031962874
239	0xbb3a3667	-0.0028413774
240	0xb995e1e0	-0.00028587785
241	0x3b45d336	0.0030185706
242	0x3b646eef	0.003485616
243	0x3b3a0304	0.0028383145
244	0xbaaaf8cd	-0.0013044119
245	0x3ae86f03	0.0017733279
246	0x3b1fa764	0.0024361247
247	0x3b6a7f48	0.0035781432
248	0x3b40113c	0.0029307147
249	0xbbb5ee18	-0.0055520646
250	0xbb890e9b	-0.0041826493
251	0x3b01188c	0.001969847
252	0x3bdeb297	0.006796192
253	0x3b0f390e	0.0021854076
254	0x3bafbfd7	0.0053634453
255	0xbaf83cf0	-0.0018939059

net.net.3.0.bias f4 [64]
0	0xbc9cdd46	-0.01914848
1	0xbb5909d9	-0.0033117442
2	0x3b4fae64	0.0031689638
3	0x3bfe615d	0.0077630715
4	0xbc5ca488	-0.013466962
5	0xbc07df10	-0.008292928
6	0x3c990a66	0.018681716
7	0xbb9da65f	-0.0048110927
8	0xbc2ed880	-0.010671735
9	0x3c8e8d6e	0.017401423
10	0xbb87aa4d	-0.0041401745
11	0xbc0341af	-0.008011266
12	0x3c359e82	0.0110851545
13	0xbc506f19	-0.0127218
14	0xbb03e2e2	-0.0020124246
15	0x3b161395	0.0022899855
16	0x3b75d69c	0.003751195
17	0xbc6a987d	-0.014318583
18	0xbbeb4bba	-0.007180658
19	0x3b7372aa	0.0037147203
20	0xbb62236d	-0.0034505979
21	0xbb8c7a7c	-0.004287062
22	0xbd0e5a61	-0.03475416
23	0x3be08f8c	0.0068530496
24	0xbc82849f	-0.01593238
25	0xbc172754	-0.009225685
26	0x3cc6301c	0.024192862
27	0x3c2d21e7	0.010567165
28	0xbc9d32fc	-0.01918935
29	0x3b533354	0.003222664
30	0xbc2afdb6	-0.010436466
31	0xbcb79d15	-0.02241377
32	0x3caced9c	0.021109395
33	0xbd06c58e	-0.032903247
34	0xbb88eb36	-0.00417843
35	0x3aaef6ec	0.0013348735
36	0xbb9f91a6	-0.0048696576
37	0x3b2fb16b	0.002680863
38	0xbc93345e	-0.017969307
39	0xbbe1e5ad	-0.0068938346
40	0x3cc82c00	0.024435043
41	0x3d059c68	0.032619864
42	0xbb49ed48	-0.0030811597
43	0xbc4e0ac6	-0.012575811
44	0x3bcb4fbf	0.006204575
45	0xbb475e5e	-0.0030421237
46	0x3bc6f553	0.0060717254
47	0xbcc72c26	-0.024313044
48	0x3c54e316	0.012993595
49	0xbca3c501	-0.0199914
50	0xbbbef5b4	-0.00582763
51	0xbc0d0498	-0.008607052
52	0x3a180c53	0.00058001763
53	0xbc8b8925	-0.017033169
54	0xbc3e3877	-0.011610142
55	0xbc7cadeb	-0.015422325
56	0xbc4acf55	-0.012378533
57	0xbc287b2b	-0.010283272
58	0xbc7cd86b	-0.015432457
59	0xbadf6224	-0.0017042798
60	0x3c081ca4	0.00830761
61	0xba6861bd	-0.0008864662
62	0xbc075a3c	-0.00826126
63	0x3b996716	0.0046814783

net.net.4.0.weight f4 [1, 64]
0	0xbc56797a	-0.013090486
1	0x3ca71f15	0.020400563
2	0x3cde0314	0.027101077
3	0x3c8e999c	0.017407231
4	0xbd025b30	-0.031825244
5	0x3c5e1d4d	0.013556791
6	0x3c69595a	0.0142424945
7	0xbc9390e8	-0.018013433
8	0xbc830de2	-0.01599783
9	0x3cbd8b7e	0.023137804
10	0xbc4bab72	-0.0124310125
11	0xbc9f16c2	-0.019420031
12	0xbca112ce	-0.019662287
13	0x3ca61814	0.020275153
14	0x3cb64a47	0.022252215
15	0x3cc20c17	0.023687406
16	0x3c14eb16	0.009089252
17	0x3caabe6a	0.02084275
18	0x3cbffa76	0.023434859
19	0xbc8a4228	-0.016877249
20	0xbcc1826e	-0.023621764
21	0xbcc7df12	-0.02439836
22	0xbca3aef4	-0.019980885
23	0xbc4c46c6	-0.012468046
24	0xbd06748b	-0.032825988
25	0xbcd32f82	-0.02577949
26	0x3c20bdba	0.009810859
27	0x3cc0ae0f	0.023520498
28	0x3ca2298d	0.019795204
29	0xbc85c635	-0.016329864
30	0xbc4a5a62	-0.0123506505
31	0x3cb46bf1	0.022024127
32	0xbc4c2362	-0.012459608
33	0xbc5d9959	-0.01352533
34	0x3cbca529	0.023027973
35	0x3c43a769	0.011941769
36	0x3d0b2f95	0.033980925
37	0xbca41531	-0.020029636
38	0xbcbad38b	-0.02280595
39	0xbc9cc995	-0.01913909
40	0xbc8eaf5c	-0.017417602
41	0xbbd82f4a	-0.006597434
42	0x3c4082b2	0.01174991
43	0xbc8942bf	-0.01675546
44	0x3cdd38b8	0.027004585
45	0x3c8cfea9	0.017211275
46	0x3c648f94	0.013950247
47	0xbc83245f	-0.016008554
48	0x3cd519ff	0.026013372
49	0xbcc547a8	-0.02408202
50	0xbcbad2d8	-0.022805616
51	0xbcba13e1	-0.022714557
52	0x3cbcffc0	0.02307117
53	0xbc7a5bf5	-0.015280713
54	0xbcac9e63	-0.021071618
55	0xbc373dd7	-0.011184177
56	0x3cbd836a	0.023133952
57	0x3ca3a73e	0.019977208
58	0x3caf6f82	0.021415476
59	0x3cb1c4ce	0.02170029
60	0xbce034b3	-0.027368879
61	0x3c78eb12	0.015192764
62	0x3cd583f6	0.0260639
63	0xbccbe4d2	-0.024889383
